fan_fault_detection.tflite (tflite, 14208 bytes, 6 tensors)

arith.constant f4 [15, 32]
00000000: 950b 8abe ae8c c13e 7540 943e 9ded 803e
00000010: f4ce 88be e973 933e 0184 e1bc 2f77 133e
00000020: 60a5 bfbe 1076 683e d110 763e 2bfa 123e
00000030: b227 a43e 748e 433e 37e7 60be a08a 533d
00000040: 70f9 9abe c904 1fbf c31d 813e 36ab 10bd
00000050: 3550 b93d ab90 38be 926b b23c f184 78bd
00000060: d6f0 75be d997 3239 c020 dc3d 6e26 89be
00000070: 43d4 a3be 37e8 5bbe 1adb 2d3e 6da5 1bbe
00000080: 9b10 9abe a778 13bf f0cb 213e e6ad b23d
00000090: 0054 ac3d e24e 00bd f537 1bbe bdae 8bbe
000000a0: aa9c fdbf 8eda 7e3e 29cc 0e3d 6124 75bf
000000b0: 0862 513e 3bec 4c3e c279 73bf 6e67 a5be
000000c0: 3408 323e 7636 1abe b936 96be d090 3d3e
000000d0: 0616 9bbd 43ff ae3d e211 d3bd 3a1b bcbd
000000e0: 8024 fabb fac6 3dba 2b02 4fbd 8e70 c4bc
000000f0: 6eb4 5ebe 0732 10bf d227 073e fbbb c13e
00000100: e816 d23d d0d2 b2be 64cf a7be 7ce6 973e
00000110: c4c2 283e cc6e 0f3e 8743 3cbe 1ee2 6cbe
00000120: 118a acbe a3f1 cfbf 7065 aebe f325 69c0
00000130: c897 0dbe be62 a63e 6568 7cbe a0a5 903d
00000140: 32d4 58bd b13f ec3d b72e 61be f07d 95bd
00000150: 2d1c dabd df79 61bd 1445 9a3d eee3 02c0
00000160: 2c0f adbd 40ad a0be cd13 44be 5899 c93e
00000170: f33e a6be c3dd cbbd bbb8 883e 4789 133f
00000180: 06db 27be 63a9 fa3e 8bfd 7dbe 1786 903e
00000190: 0070 513d 3a68 4fbd 62ef 27be 4caa 08be
000001a0: 575d ddbc efa9 4dbe 859b 223e b065 9dbd
000001b0: c4ad 443e f99b 8b3e a85e 0e3d 40ae d93d
000001c0: 6cbd 6b3e ef3f 2abc b505 693e 239f 59be
000001d0: eb8a 043c a6d1 35be 425c 00bc 3034 81be
000001e0: f16b 98be 70e5 dd3e 8c4e afbe b541 3a3e
000001f0: 7c3c a4bd 1536 69be 2e36 c7be 0b58 513e
00000200: ace6 33bd 23e4 eb3d 804f 50be 9f4c 9dbd
00000210: d53a afbe 9131 bb3d 62f3 823e df01 81bf
00000220: 6fe6 573e 86a8 94bd 4332 c73e 5e4f 61be
00000230: ad8f 1abe eefc 02be 8054 ba3d 4047 49bc
00000240: 9c3d aebe d376 2abe 79cf a93e 4aef 99be
00000250: dc54 d83d e270 11be 59a1 393e 032a 1abe
00000260: b48f a93d 532b 0b3f 579d 82be 0f89 4f3e
00000270: 177e 00be e10f c3be dd3c 44bf 3554 093f
00000280: e69a 32bd ca47 953e 2d1d 1a3d 5002 9fbe
00000290: a47c fe3d f0f0 bf3e f4ea b93e 3b24 133f
000002a0: 19b1 f53d 34ed eabd 53f1 023e 4a8f 463e
000002b0: c200 1bbe 533a 21be fb37 f3be 26fd b33e
000002c0: 0e57 dc3d c2fa 843e bae7 383e 1ca1 293e
000002d0: 2dec b5be 9d49 8dbe b623 8ebc 9bca f43d
000002e0: c86c af3d 74b9 ebbd 5f79 5fbe 3ec3 b73e
000002f0: b521 5bbe 8ed9 08be 0cb7 b03e 9685 01be
00000300: 7d43 cebd 2e70 a63e 1543 443e 2204 d53d
00000310: 5094 673e c0b7 043e e7c7 103e 7403 913d
00000320: a34a c1be b460 993e 0ab3 9e3e 9917 a43d
00000330: 4cb2 a1bd 0f58 a23e abe8 a6be b819 54bd
00000340: ba0d a73d 12a8 0dbf 34ea 593d 64ed 923d
00000350: ba11 dc3d aaa8 b4bd fec4 4d3e 7117 b0bd
00000360: ca9d 35be 8189 afbd 5229 ab3e eaec 32be
00000370: 54f9 36be b936 30be ae4b d83d aeca 08bd
00000380: 78a9 bdbd bab9 18c0 7f30 89be 447f 22be
00000390: 9049 623e 1539 6abf 3c9c 23be d802 5b3e
000003a0: 32a0 09bf 081c 9c3e 9043 b7bd 2b59 22c0
000003b0: 288b 94bd c37d 0fbe c298 83bf 9075 da3d
000003c0: 6db2 92be ed5b 53be 0679 553e 29c8 cb3e
000003d0: f8b4 163e 35a0 793c 0bff 703a bb5c 0dbe
000003e0: 30d7 9f3d ad9a adbe 5592 ab3e 007d 9b3c
000003f0: eb38 99bd 0f36 c2be 2cc3 38be 474e e33e
-0.2696196 0.37802643 0.28955427 0.25181285 -0.26720393 0.2879937 -0.027528765 0.14400934
-0.3743086 0.22701287 0.24029852 0.14353244 0.32061535 0.1909731 -0.21963201 0.051645875
-0.3026843 -0.62116677 0.2521802 -0.03531953 0.090485014 -0.18023936 0.02177981 -0.060673658
-0.24017653 0.0001703197 0.10748434 -0.26787132 -0.3199788 -0.21475302 0.16978112 -0.15199824
-0.30090794 -0.57605976 0.15800452 0.08724575 0.08414459 -0.03132523 -0.15158065 -0.27281752
-1.9813435 0.2488806 0.03486267 -0.95758635 0.20447552 0.2001199 -0.9510766 -0.32305473
0.17385942 -0.15059838 -0.29338625 0.18512273 -0.0757256 0.08544781 -0.10306145 -0.091848806
-0.0076337457 -0.00072394277 -0.050539177 -0.023979452 -0.21748516 -0.56326336 0.13198784 0.3783873
0.10258275 -0.34926462 -0.32775414 0.29668033 0.16480547 0.1400711 -0.18385135 -0.23133132
-0.33699086 -1.6245617 -0.34061766 -3.6429412 -0.13827431 0.3249721 -0.24649198 0.070628405
-0.05293674 0.11535586 -0.21990477 -0.07299411 -0.10649905 -0.055047866 0.07532707 -2.0451617
-0.084501594 -0.3138218 -0.19148178 0.39374804 -0.324699 -0.09954407 0.26703438 0.57631344
-0.16392145 0.48957357 -0.2480375 0.28227302 0.051132202 -0.050636508 -0.16399911 -0.13346213
-0.027022047 -0.20084356 0.15879638 -0.07685411 0.19206911 0.27267435 0.03475824 0.10628939
0.23021477 -0.0103912195 0.22756083 -0.21252112 0.008089761 -0.17755756 -0.007834496 -0.25235128
-0.29769853 0.4333911 -0.34239614 0.18189128 -0.08019349 -0.22774537 -0.38908523 0.20443742
-0.043921158 0.11518123 -0.20342827 -0.0768063 -0.34224573 0.091403134 0.2557631 -1.0078696
0.21083997 -0.07258706 0.38905534 -0.22002932 -0.1509387 -0.12791798 0.09098148 -0.012285054
-0.3403138 -0.1664689 0.33166102 -0.30065376 0.10563061 -0.14203218 0.18127955 -0.15055089
0.08279362 0.5436298 -0.25510666 0.20267127 -0.125481 -0.38098052 -0.7665537 0.53644115
-0.043604754 0.29156333 0.03762548 -0.31056452 0.12426117 0.37488508 0.36312068 0.5747716
0.11996669 -0.11471024 0.1278737 0.19390598 -0.15137008 -0.15744905 -0.47503647 0.35154074
0.10758792 0.25972563 0.18057147 0.16565365 -0.3553175 -0.27595225 -0.017351013 0.119527064
0.0856567 -0.11509982 -0.21823643 0.35891145 -0.21399577 -0.1336424 0.34514654 -0.12648615
-0.10071466 0.3250746 0.19166215 0.10401179 0.2261517 0.1296072 0.14138757 0.07080737
-0.37752256 0.2995659 0.3099597 0.080123134 -0.078953356 0.31707808 -0.32599387 -0.05178234
0.08156915 -0.5533458 0.05320187 0.07174185 0.107455686 -0.088212326 0.20094678 -0.08598221
-0.17735973 -0.08571149 0.33429962 -0.17473188 -0.17868549 -0.17208375 0.1056131 -0.033396415
-0.09260839 -2.3863358 -0.26794812 -0.1586886 0.22098374 -0.9149335 -0.15977567 0.21387804
-0.53760064 0.30490136 -0.089484334 -2.5366924 -0.072531044 -0.14012818 -1.0280993 0.106669545
-0.28651753 -0.20640536 0.20846948 0.39801148 0.14717472 0.01523595 0.0009193278 -0.13804905
0.07804716 -0.3390707 0.3351008 0.018980503 -0.07481559 -0.37931868 -0.18043202 0.44395658

arith.constant1 f4 [32, 64]
00000000: 0e0d af3e d5ed a53f e7fd 8abd 2a3f a7bd
00000010: 4852 1f3e a853 e3bd cb5f 013e 0106 8fbd
00000020: de00 7bbd 5c3d 89be a6d9 a33e f0b6 15be
00000030: 99cd 4a3d 32d6 783e f796 03be 41db 00be
00000040: 0828 6d3e 343c 42be 40ab f73d 928b 4d3e
00000050: 78ac a9be b99b ae3e 5f7c 503e 8a60 993e
00000060: f308 80bd f790 13be 25cc fd3d 166f 9e3d
00000070: 4c57 e63e 4cf1 04be fcee 25be e5af 1dbf
00000080: a214 393d b228 5c3e bdc1 fabd fe87 9fbd
00000090: 93d9 76be 88ec bd3d 8041 e53c 4341 49bd
000000a0: f257 543e a979 68be 962f a93d 184f eabc
000000b0: e664 ebbd 577f 3cbf 1014 493d a1d6 2bbe
000000c0: 2e2b c7bd d87e bebd 5061 223e 94a7 003f
000000d0: 3087 80bd 3951 773e 0823 c93d f7b6 a53d
000000e0: 5469 67be fb4b c23d edc5 8f3e f7da 303e
000000f0: d2eb ee3d e96d efbd aa38 053d ed0a 8bbc
00000100: f69c 363d e0d4 0abe 3e7d 1bb9 1aa2 663d
00000110: e013 f3bd 5054 373d c5d3 18be a806 123e
00000120: 52f1 1cbe cf49 933c 686f 1ebd 8c5d 4c3e
00000130: 7a84 b83d 8133 323e 3409 9b3e eaa6 85be
00000140: 809a 90bb 40e0 083e c03a 37be 282f 313e
00000150: 72e2 f4be f8f2 96bc 7782 3dbe 5dd7 b3bd
00000160: 7fdd 763e 34ca 583e 7061 42be d30c a53d
00000170: caf3 dc3d 60a1 13bd 8ebc 5bbf 1c1f 31be
00000180: 9d68 17bf 0ae9 2d3e 2f5f 9b3b 6328 253c
00000190: f668 043e c50c 68be 7c0f 073e c1f8 613e
000001a0: 5352 0c3e d57d 84be 0dc1 703d 8a0d ffbb
000001b0: d2e2 9a3c 53d3 adbe 00e6 053e 3139 bb3d
000001c0: 4df2 a83d 6804 2c3e 85db 6b3b d34d 993e
000001d0: 60b0 c23d 4829 aabd faf1 323b f9d8 51bc
000001e0: 4060 a53c 22d3 2dbe bb8a 47be 30e8 79be
000001f0: d161 a5bb 844a 783e f82e c8be f18e e5be
00000200: b85f b03d ef75 8a3d 6b62 3d3e 24dd c8bd
00000210: 110b 32be 204d f3bc da9f 4dbe 1804 6fbd
00000220: 4aa3 55be 607e c23c 6faf 593e 9cbf 423e
00000230: 03e6 493e fc0e ccbd e955 68be aba7 be3d
00000240: ec9f 773e f75b 303d c44c 07be 6d39 523e
00000250: b6e9 22bd 95af 22be b8d1 4a3e cb30 9a3d
00000260: fbec 43bd fc12 2e3e 8963 40bc 9635 52bb
00000270: 1a61 553e 1089 403e 70c6 0ebd 0602 1abe
00000280: 0a6f 80be baea 8b3c 3ff1 063d 1c26 523e
00000290: 3aad 7abc af9d 553e 308f abbd 53ca b13d
000002a0: de37 023c 2423 0cbe 1243 82bb 5cd8 47be
000002b0: 20b4 033d afa7 0c3e 804a 9c3c 4315 193d
000002c0: 7dcb 1f3d 1358 88bd a96d 33be dd2d 5a3e
000002d0: 04a3 513e 5315 163e 9752 153e d4cd 243d
000002e0: 3073 c63d f752 913d 7a03 5a3e 8072 4cbe
000002f0: 49de febd 2887 4e3e c26c 88bd 69c3 2fbe
00000300: e540 92be 80ec 18bf cef5 013e 87fd b63d
00000310: ac91 88be b4ed 00be 2c4d 27bf 39be f83c
00000320: e237 d4bd 75e4 9b3e bcbe a43e 80c9 0ebc
00000330: b60b 3d3e 4e81 6ebe 0f77 e73d 9e4c 07be
00000340: 94b1 74be c5ea 903d f85c e9bd c672 e93d
00000350: 1ef8 333e 2442 043e 8502 d4bd cf80 02ba
00000360: b762 9abd e564 0b3e d8ff 97bd 678b fc3d
00000370: 407a a3bc e075 84bc 3da1 063e a311 c5bd
00000380: 78ac 373e c9f6 47be d71e 5ebe b7a3 cebd
00000390: 6203 703e 99f9 ecbd 5063 4dbd eab8 203e
000003a0: d86c 193e f1af 2f3e 35e5 003e 7940 b63d
000003b0: 2373 4ebd 2abb 8dbe d82c f73d 2d7a 423d
000003c0: 973c efbd 5a46 fabc ddab b53d 7f92 8e3d
000003d0: 2c4d 003e 4598 6ebe 21d0 af3c 95de 16bd
000003e0: e08c 88bc c298 40be 8310 963d 0b19 20be
000003f0: 2d61 90bd f2cb 823c 19b7 6f3e 8c23 b0be
0.34189647 1.2963206 -0.06786709 -0.081663445 0.15558732 -0.110999405 0.12634198 -0.06983567
-0.061280124 -0.26804626 0.3200199 -0.14620566 0.04951248 0.24300459 -0.12850557 -0.12583639
0.23159802 -0.18968278 0.1209321 0.20072773 -0.33139396 0.34103182 0.20359944 0.29956466
-0.06251707 -0.14410768 0.12392453 0.07736032 0.44988477 -0.12982672 -0.16204447 -0.6159652
0.045185693 0.21499899 -0.12243984 -0.0778961 -0.24106435 0.092736304 0.027985334 -0.049134504
0.20736673 -0.2270266 0.082610294 -0.028602168 -0.11493854 -0.73631805 0.0490914 -0.16781093
-0.09725033 -0.09301537 0.15857434 0.50255704 -0.06275785 0.24152078 0.09821135 0.080915384
-0.22598773 0.094871484 0.28080693 0.17271028 0.11666073 -0.116908856 0.032524742 -0.016972983
0.044583283 -0.13557768 -0.00014828608 0.056306936 -0.11869025 0.04475814 -0.14924534 0.14260352
-0.15326431 0.01797953 -0.038680464 0.1995756 0.09009643 0.1740246 0.3028046 -0.26103908
-0.004412949 0.13366795 -0.17893505 0.17303145 -0.47829014 -0.018426403 -0.185068 -0.08781312
0.24107932 0.21170884 -0.18982482 0.08059087 0.107886866 -0.03604257 -0.85834587 -0.17297024
-0.59144 0.16983429 0.0047415714 0.01008043 0.12930664 -0.22661121 0.131895 0.22067548
0.13703279 -0.25877252 0.058777858 -0.0077835964 0.018906984 -0.3395029 0.1307602 0.09141768
0.0824934 0.16798556 0.0035988998 0.29942188 0.09506297 -0.08308655 0.0027304874 -0.012808078
0.020187497 -0.16975072 -0.19486515 -0.24404979 -0.005047061 0.24247175 -0.39098334 -0.44835618
0.08612007 0.06760775 0.18494575 -0.09807804 -0.17387034 -0.029699862 -0.2008051 -0.058353513
-0.20863071 0.0237419 0.21258329 0.19018406 0.19716649 -0.099637955 -0.22689022 0.09309324
0.24182099 0.043056455 -0.13212878 0.20529719 -0.039773665 -0.15887292 0.19806564 0.07528838
-0.047833424 0.1699943 -0.011742481 -0.0032075397 0.20837823 0.18802285 -0.034857213 -0.15039834
-0.25084716 0.0170797 0.032944914 0.2052235 -0.0153000895 0.20860933 -0.0837692 0.086811684
0.00794789 -0.1368528 -0.0039752806 -0.19516128 0.032154202 0.13735841 0.019078493 0.037373792
0.03901242 -0.06657424 -0.17522301 0.21306558 0.20472342 0.14656572 0.14582287 0.040235355
0.09689939 0.070959024 0.21290389 -0.19965553 -0.12444741 0.20168746 -0.06661369 -0.17164387
-0.28565136 -0.5973587 0.12691423 0.08935075 -0.2667364 -0.12590677 -0.6535213 0.030364143
-0.10362221 0.30447736 0.3217677 -0.0087150335 0.18461499 -0.23291513 0.113020055 -0.13212821
-0.23895866 0.07076029 -0.113946855 0.113988444 0.17575118 0.12915856 -0.10352043 -0.00049783004
-0.075383596 0.13612707 -0.07421845 0.123312764 -0.019955754 -0.016169488 0.13147445 -0.096225046
0.17936885 -0.19527735 -0.21691452 -0.1008982 0.2343879 -0.115710445 -0.05014354 0.15695539
0.14982927 0.1715696 0.12587436 0.08899016 -0.05040277 -0.27681857 0.120691 0.047479797
-0.116814785 -0.030551124 0.08870671 0.06961536 0.12529439 -0.23300274 0.021461548 -0.036833365
-0.016668737 -0.18808272 0.07327368 -0.15634553 -0.07049785 0.01596639 0.2340969 -0.3440212

arith.constant2 f4 [15]
00000000: 0921 82bb d0be 923d f7de 343e 9f3e b33d
00000010: e263 e2bd 703c 78bd 2d26 40bc 0db0 c73d
00000020: 93bf afbc 8291 43bd 45e8 8fbc ea60 a63b
00000030: ad7c d13d 5879 b1bd 4218 a7bd
-0.0039712233 0.07165301 0.1766318 0.087521784 -0.110542074 -0.060604513 -0.011727852 0.09750376
-0.021453654 -0.04774619 -0.01756681 0.005077471 0.10228858 -0.086657226 -0.08158924

arith.constant3 f4 [32]
00000000: 6022 573b 5590 18bd 92a0 66bc 592e 863c
00000010: 0000 0000 4c6c dcbc ea23 8e3c 6639 98bc
00000020: 2189 3dbd 3b88 45bd 5b59 55bd 7275 82bd
00000030: 0000 0000 19e6 73bc 1c29 68bd 0000 0000
00000040: 29c0 b8bc dd27 4fbd 65a1 f8bb f635 b13b
00000050: bdf3 f6bc be22 07bd 8e30 a0bc 0cfb 29bd
00000060: 0000 0000 0bf5 8dbb b209 b1bc 0f2c 87bc
00000070: 5fba 67bc 8141 eebc 8420 a5bc 3824 f83c
0.0032826886 -0.03724702 -0.014076369 0.016379522 0.0 -0.026907109 0.01735111 -0.018582057
-0.046273354 -0.048225623 -0.05208717 -0.06370057 0.0 -0.0148864025 -0.05667983 0.0
-0.022552567 -0.050575126 -0.007587599 0.005408044 -0.03014552 -0.032992117 -0.019554403 -0.041499183
0.0 -0.00433219 -0.021611068 -0.016500501 -0.014143555 -0.02908397 -0.020157106 0.030290708

sequential_19_1/dense_57_1/Add/ReadVariableOp f4 [64]
00000000: c91c cb3b c4eb e2bd 63ae 153c 7b88 b1bc
00000010: a94f 40bd 0000 0000 b00a 70bd 096b 893c
00000020: bcff 19bd 0589 31bd 9f11 a0bc 0000 0000
00000030: 608c fe3b 0738 4b3c 8286 c13c 714e e3bc
00000040: 0000 0000 5a7a 6abd 0000 0000 5363 f8bc
00000050: 0373 1dbd cdac 633d b574 a0bd 69b8 c73b
00000060: 7fb6 66bc 8654 5dbd c75e 46bc e449 98bc
00000070: 79c0 88bd 0000 0000 81f7 883c 76ae 1dbe
00000080: 9804 833c 9653 f1bc c268 213c 52f6 08bd
00000090: 09b3 04bd 3df6 22bd 0000 0000 0787 4cbd
000000a0: 381b aabc 40de 0fbd 297a 0cbd 8886 ce3b
000000b0: 3396 31bd 23da 6fbd 0000 0000 ba10 fdbc
000000c0: 03cb 4d3d 90b9 6cbd c669 1cbc 47a3 36be
000000d0: 0000 0000 b22c 473c d63a 98bc aee9 ed3c
000000e0: 0000 0000 c84c 1ebd 0d34 4cbd e382 70bd
000000f0: d08e ecbd 64b2 83bd d216 17bc ab5b c5bc
0.0061985 -0.11080125 0.009135815 -0.021671524 -0.04695097 0.0 -0.058603942 0.016774671
-0.037597403 -0.043343563 -0.019539652 0.0 0.007768199 0.012403495 0.023623709 -0.027747365
0.0 -0.05724559 0.0 -0.030320799 -0.03843976 0.055584718 -0.0783476 0.0060949815
-0.014081596 -0.054035686 -0.012107558 -0.018589921 -0.06677336 0.0 0.016719582 -0.15398583
0.015993401 -0.029458802 0.009851636 -0.033438034 -0.032397304 -0.039785612 0.0 -0.04993346
-0.020764932 -0.035124063 -0.03429619 0.0063026585 -0.04335613 -0.05855764 0.0 -0.030891765
0.050242435 -0.057794154 -0.009546703 -0.17835723 0.0 0.012156652 -0.018582743 0.029042091
0.0 -0.038647443 -0.049854327 -0.058718573 -0.11550677 -0.0643051 -0.009221749 -0.024091562

sequential_19_1/dense_57_1/MatMul f4 [64, 6]
00000000: 905f 3ec0 1249 343c 5ec6 00bd 9eff e33e
00000010: e8b7 27bd 8bc9 5cbe 0f4a a6be 6e7c b13e
00000020: 4639 cebd 5d03 02bd 83f0 c8bd 6905 43be
00000030: f935 ecbd a73c b5be 4dec ac3e fb3b 53bd
00000040: 64b6 db3d 9f4a debc 2a11 77c0 8773 06bd
00000050: 4b2d b4bd 6a7b 24be 62a4 063e e871 753e
00000060: 4299 4440 b940 753d 9a2c 12be 447e 793e
00000070: 248c 633c c446 77bd 7817 063e 347a 2abe
00000080: 24d3 5bbe e07d b43d a687 56be e807 36bd
00000090: fc2f 15c0 3a85 693e 92b0 e3bc 1c7e 33bc
000000a0: fda0 32bc bd0b e2bd adc4 a03d 3f11 10be
000000b0: 711a cd3d 0702 17be f45a 843e 6f04 8b3d
000000c0: 8a28 e43f d40a f5bd fd36 2c3e c021 0bbe
000000d0: 9b3a 2c3e a24d b93d b8f1 42c0 8320 603d
000000e0: 019a 9bbe ab74 da3e 1298 51bd fd85 7dbd
000000f0: 914f 57bf 509a cfbe d8d9 15be 34ec 69bd
00000100: 741b 443e 3ad5 c6bb d4cb dcbd e02e 79be
00000110: ee0c 06be 7adb 103e 914b 6bbe 6894 c6bd
00000120: c5b5 4abf b5e4 c0bd 000e f4bd 745f c53d
00000130: 470d d13e dea3 8fbd a9e1 833d 96f7 7fbe
00000140: f15e 84be cf49 4a3e 5ee9 363e 7e2b 1e3e
00000150: c181 eb3f 41d9 3fbe 6039 55be 9da5 203d
00000160: 5313 133e 8b96 e23c 16fb 96bf 1bb4 213e
00000170: 1d3e 5ebe 0d9d 933d cc49 f0bd 2d9b 5e3e
00000180: f078 bb3c 3291 e5bd a24f 53be 800d 983b
00000190: f8e9 3ebe 684d fabd c027 52be 441a d0bd
000001a0: 9ffa 793e 9a8b 803e d8a9 5cbd 20cb 4f3e
000001b0: 08e8 8bbe d084 3a3d dcfa 7fbd 7d7e 8cbe
000001c0: 4b9a 7ebe 1506 50be 2959 7d3f 5246 7ebd
000001d0: fca9 813e 553e 623d 73fa 3cbe aa29 463c
000001e0: 7db1 64c0 237f 8f3e af93 b3bd 7d79 8b3b
000001f0: 4082 433e adee cabd cbdb b0bf dcfc cdbd
00000200: 192f 983e b3c1 e8bd 585e 0fbe f3c8 e43b
00000210: c290 873e 188a ebbe f8ce 3b3e 009c e8bc
00000220: 184e 7bbe 9aaf 9dbd 13ea 5e40 3d61 923e
00000230: fadc 883e bfaf d0bd 9056 dc3d 61fb c3bd
00000240: 34d0 1c40 9a00 f0bd dcc0 9c3e 7102 553e
00000250: 209d f33d c115 22be feba 4b40 bb0c 3b3e
00000260: 3d8b 903e 3da4 b0bd e79d 253e 7611 85bd
00000270: abd5 1cc0 d5d9 373e 6753 4f3d 224b 0cbd
00000280: 5fb6 ed3d 6a17 ad3c 3ee6 12c0 805f e13d
00000290: caf2 193d 3d25 fb3d b11a de3d c830 6a3e
000002a0: 241c a8bf 4354 943e 3f57 f3bd c860 87bd
000002b0: 6b86 6b3e 1b21 9abe 9c2a 0abe 4843 163d
000002c0: cc0d 19be 7451 b0bd b0c0 e6bd 9021 dcbc
000002d0: 076a 60bf ef71 59bd 8d10 37bd c9da da3c
000002e0: e4f2 85be 5f04 413e d0ed 69bf 2e7e 9ebe
000002f0: d61d 33bc ef11 af3e 0a98 1f3d a993 eebd
00000300: ed9b 57bf 3564 92be ce30 303d 0c8d 573e
00000310: 0a1f 8ebe b97f 0e3e b567 be3f 26e4 c93d
00000320: 0c09 9bbe ea79 d53d 6c51 b73d 4aad 7c3e
00000330: 52a8 e93d 3db2 5f3e e014 05be 34e8 6c3e
00000340: 5c05 85bd 6865 a0bd c96a 85c0 9b77 13bc
00000350: 8a66 3a3e 16dc dcbb c0d5 273e 604f afbd
00000360: 6586 313f b6dd 483e 9dec e33d 9ff0 2b3e
00000370: 1660 8d3e fd06 0f3e ae46 ac3f 5c4d 4cbe
00000380: 6798 10bd 86ac d23d f134 36be 45dd 013e
00000390: 0055 66bb b02a 8f3c 804c d3bc 8cfb f8bd
000003a0: 288d fe3d 0870 1abe 6464 8dbf 0efd 15be
000003b0: 53b3 33bd d2dc 513e a0eb 053d 82cb 153e
000003c0: 4926 b53f 35c2 7a3e 97b1 0abe a184 2e3e
000003d0: 9954 673d 17b6 a73d c101 51c0 aeab 18bb
000003e0: e57b 6a3d d6c4 943d b98f d53d b434 393e
000003f0: 4afa f73f da96 333e 3f2b 443d 3ac9 70bd
-2.9745827 0.011003749 -0.031439178 0.44530958 -0.04094687 -0.21561258 -0.32478377 0.34665245
-0.10069518 -0.03174149 -0.09811499 -0.19045033 -0.11533732 -0.35397837 0.33774033 -0.051570874
0.107281476 -0.027135191 -3.8604226 -0.03282502 -0.087977014 -0.16062704 0.13148645 0.23969233
3.071854 0.059876177 -0.14274827 0.24364573 0.013888393 -0.06037022 0.1309489 -0.1664818
-0.21467263 0.08813071 -0.20950183 -0.044441134 -2.3310537 0.22804728 -0.027794156 -0.01095536
-0.01090264 -0.11037395 0.07850013 -0.14069079 0.10014809 -0.14746867 0.25850642 0.06787955
1.7824872 -0.11964956 0.16817851 -0.13587093 0.16819231 0.090480104 -3.0460033 0.054718506
-0.30390933 0.42667136 -0.051170416 -0.06189536 -0.84105784 -0.4054742 -0.14633882 -0.057110026
0.19151098 -0.006067899 -0.10781065 -0.24334288 -0.1309087 0.14146224 -0.22978045 -0.09696275
-0.7918361 -0.094186224 -0.11916733 0.09637347 0.40830442 -0.07013677 0.06439526 -0.2499679
-0.25853685 0.19754718 0.1786246 0.15446278 1.8398973 -0.1873522 -0.20822668 0.03922044
0.1436284 0.027659675 -1.1795375 0.15791361 -0.21703382 0.072076894 -0.11732826 0.21738882
0.022884816 -0.112093344 -0.20635846 0.004640281 -0.1864394 -0.12221795 -0.20522976 -0.1016126
0.2441201 0.25106508 -0.053872913 0.2029233 -0.27325463 0.045536816 -0.062495098 -0.27440253
-0.24863546 -0.2031482 0.9896417 -0.06207878 0.25325 0.055235226 -0.18454914 0.012094894
-3.573333 0.28026685 -0.08768403 0.004256426 0.19092655 -0.09908805 -1.3817075 -0.10057995
0.29723433 -0.1136507 -0.14000833 0.006981963 0.2647763 -0.46003795 0.18340671 -0.0283947
-0.24541509 -0.07699509 3.4830368 0.28589812 0.26731092 -0.10189771 0.10758698 -0.09569431
2.4502077 -0.11718865 0.3061589 0.20801713 0.118952036 -0.15828611 3.183288 0.18266575
0.2823123 -0.08625076 0.16173516 -0.06497471 -2.4505413 0.1795419 0.050616648 -0.03425134
0.1160705 0.021129329 -2.2953029 0.11004543 0.037585057 0.12262962 0.10844935 0.22870171
-1.3133588 0.28970537 -0.11881875 -0.066102564 0.23000495 -0.30103382 -0.13492817 0.03668526
-0.1494667 -0.08609286 -0.11267221 -0.026871473 -0.87661785 -0.05308717 -0.04469352 0.026715653
-0.26161873 0.18849324 -0.913785 -0.30955642 -0.010932406 0.3419337 0.038963355 -0.11649258
-0.842223 -0.28592077 0.043015294 0.21049899 -0.27758056 0.1391591 1.4875399 0.09857969
-0.3028034 0.10423644 0.08951077 0.2467548 0.11409058 0.21845336 -0.12996244 0.23135453
-0.06495163 -0.07831842 -4.1692853 -0.009000684 0.18203178 -0.0067401035 0.16390133 -0.085600615
0.69345695 0.19615826 0.11129115 0.16791008 0.2761237 0.1396751 1.345907 -0.19951385
-0.035301592 0.102868125 -0.17793633 0.12682064 -0.0035145879 0.01747641 -0.025793314 -0.12157354
0.12429267 -0.15081799 -1.1046262 -0.14647314 -0.04387219 0.20494393 0.032695413 0.14628413
1.4152309 0.24488147 -0.13544308 0.17042781 0.056477163 0.08189028 -3.265732 -0.0023295688
0.05724706 0.07264106 0.104278035 0.18086511 1.9373257 0.17538014 0.047892805 -0.058785655
