models/fan_fault_detection.tflite (tflite, 13560 bytes, 6 tensors)

arith.constant f4 [12, 32]
00000000: 00d7 28be 6218 f5bd bc47 6dbe 9b64 893e
00000010: 5d1f 83be c6a3 673e b0eb 943e c083 893e
00000020: 1b5e e53e b40a 0b3d 64f0 cc3d c08e 9d3c
00000030: c94b 403e aa82 49be 68d1 2b3e ef34 293e
00000040: 30b4 9dbe 081a 5abf 9164 c6bd 09fe 373e
00000050: abb4 95be 731b 883e de06 733d 5eb7 b23e
00000060: 6ede 71bd d198 1abe 0cab 3d3e 4658 9cbe
00000070: 2caa 23bd 1951 ddbd 260d 4e3e 87f0 a13e
00000080: dcf9 d23d bc97 4fbe 5876 22be 661f b63e
00000090: e967 cc3d 9ec0 9ebe 8706 f5be bc89 f9be
000000a0: 6500 f9be e95e 153f ce69 553e ef96 a13e
000000b0: 1d18 aa3e 9e28 05bc 454b 70bd 8f44 963e
000000c0: bcfb ef3d 4a4a b5be e79c 99bd e6d7 2cbd
000000d0: 017f 883e d867 453e e86e 19c0 8df8 173d
000000e0: ffef 14bf 8c2e 99be 27b7 97be c937 6f3e
000000f0: fb67 883e 7c3d 80be c01e 96bc 2918 893d
00000100: 00f2 ae3c f98b 443e 77df 953e 8986 a53e
00000110: 76eb c3be a0c5 03bc 9fd9 a23e 5dac ae3e
00000120: 9a17 ed3e 38e1 80bd 8f59 97be 6002 f9bd
00000130: 8256 2dbe 1793 99be 708c 903e 85cb 863d
00000140: 802d fa3b 81b4 41bf 3819 073e efcc a2be
00000150: 7794 b0be 8a10 d33d f760 21be 8c72 30be
00000160: 1194 39be ebd3 d33c c222 4b3e 6c6e 363e
00000170: f8e1 31bc a41f 46be a03f 8e3c b0cd 353e
00000180: 0024 b8bb 4dde a93e 42b0 94be 04e1 d63e
00000190: 4b70 293d b07f 18bd 655c 18be 8dde 94be
000001a0: 03ac 1b3e aca5 573d 31b3 6ebe ca41 7f3e
000001b0: 2277 c33e 725f f33d eeab 0d3e b7ee 0f3e
000001c0: ceec 35be 41ea f0be a6d5 08be 056a e0bc
000001d0: 34a8 783e c979 7b3e 1d9c 4dbf 9c9d 9fbe
000001e0: 81ed dfbe 7a6f 203e 72d7 fcbc 8103 54be
000001f0: 40f6 d43d 0eec 3a3e e02a 0ebd 63a1 90be
00000200: 83d3 b13e dd56 42be daaa 4c3e 6830 66be
00000210: 7c88 b3bd 902f b8bc d8ff b23e 12a6 58be
00000220: bc2e 1b3e 2a56 7abe ae76 5c3e 0703 9a3e
00000230: fd4a bb3c 1a47 7a3e 74b9 e83d 31fc d7bd
00000240: 7209 9bbe 9f78 b63e e35f d2bf 418d 00be
00000250: 712a 76be a03b 543e 4b4b 3e3e 3c08 c53e
00000260: 6466 8b3e 9295 7fbd cc0b d8bd 6b36 d8bb
00000270: 4ce9 b3bd 9570 a13e 905b 88bd 189d 413e
00000280: 3250 713e 1b14 ce3e 4c9b f13d 7d3a aa3e
00000290: f060 c3bd 66f9 7e3e 483b 9abc af48 fcbe
000002a0: db27 883e bd33 10be 448d f33d 650d 923e
000002b0: bdac be3e 9178 f03d d085 9c3e 23d4 3ebc
000002c0: 4b83 b43e 00fd 24be 4c36 00be 34e5 8dbe
000002d0: 42a9 6dbe 1a4e 8f3e b7c0 33bf eb2a e3be
000002e0: 63cb dfbe 294b a4be d16d 873e 8430 72be
000002f0: cae4 4ebe 1a70 babd 4fb6 8bbe dabe a53e
00000300: d978 aa3e 1942 ffbc 8003 953b e719 713d
00000310: 736a eb3c 68ac a7be fa4e b1bd 333e 48bd
00000320: 430a 3d3e c906 f5be 43aa 6fbe 6415 eebd
00000330: 110c e23c 6ee5 91be 190b adbe fc7a 23bd
00000340: bb4d 44be fdc0 ff3e 6b76 f5bf c44d 0fbd
00000350: 4f82 973e 4486 263c 605f d53a 474e b33e
00000360: 6be9 3ebd 8a89 aebe 9e91 49be 4725 b03d
00000370: 4312 b03d 21c9 97be e4c4 82be e7bc ae3e
00000380: 7247 333e ea1e 903e d852 80bd 18e2 cf3d
00000390: e527 793e ce8e 7c3e d580 023f 1111 00bf
000003a0: c8f4 0fbe d891 533e 707f d2bd 9bf4 80be
000003b0: 7130 a1bc a34b 13be fa33 43be 5ab3 28be
000003c0: 709a 3dbd 4588 c53d d7d9 53bf 9c0f 7b3d
000003d0: 4056 82bd 9938 47be 41c9 1f3d e57b 073e
000003e0: c7c9 673e 6dd8 f7bb 9891 adbe d796 80be
000003f0: ce10 b03d 5aa2 993e 6530 18be 0bd1 4abd
-0.16488266 -0.11967541 -0.23171896 0.26834568 -0.25609866 0.22621068 0.29086065 0.2685833
0.4479836 0.033945754 0.100067884 0.019233108 0.1877891 -0.1967875 0.16779101 0.16524099
-0.30801535 -0.8519597 -0.0968715 0.17968 -0.292394 0.26583442 0.05933272 0.34905523
-0.059050016 -0.15097357 0.1852228 -0.30536097 -0.03995721 -0.10806484 0.20122203 0.3162882
0.10301563 -0.20272726 -0.15865457 0.3557083 0.09980757 -0.3100633 -0.47856542 -0.48737895
-0.48633114 0.58347946 0.20841143 0.31560466 0.33221522 -0.00812736 -0.058665533 0.2934918
0.117179364 -0.3540824 -0.0750063 -0.042198084 0.26659396 0.19277894 -2.3973942 0.03710227
-0.58178705 -0.29918325 -0.29631922 0.23361124 0.2664183 -0.2504691 -0.01832521 0.06694061
0.021355629 0.1919402 0.29272053 0.32329205 -0.3826558 -0.008042723 0.31806657 0.34115878
0.4630707 -0.06292957 -0.29560515 -0.12158656 -0.16927531 -0.29995033 0.28232145 0.06581787
0.0076348186 -0.7566605 0.13193214 -0.31796977 -0.3448827 0.10305889 -0.15759645 -0.17231196
-0.18122889 0.025857886 0.19837478 0.1781556 -0.010857098 -0.19348007 0.017364323 0.17754245
-0.005619526 0.33177415 -0.29040724 0.41968548 0.041366857 -0.037231147 -0.14878996 -0.29076043
0.15202336 0.05264823 -0.23310544 0.2492744 0.3817683 0.11883439 0.13835117 0.14055906
-0.17766115 -0.47053722 -0.1336275 -0.027394304 0.24282914 0.24558176 -0.80316335 -0.31174934
-0.4373589 0.15667525 -0.030864451 -0.20704462 0.10398531 0.1825411 -0.034708858 -0.28248128
0.34731683 -0.18978448 0.1998705 -0.22479403 -0.08766267 -0.022483617 0.34960818 -0.21157101
0.15154546 -0.24446931 0.21529648 0.30080435 0.022862906 0.24441186 0.113634974 -0.105461486
-0.30280644 0.35638902 -1.6435512 -0.12553884 -0.24039628 0.2072587 0.1858341 0.38482845
0.27226555 -0.0623985 -0.10549125 -0.006598284 -0.08784732 0.31531206 -0.06658089 0.18907583
0.23565748 0.40249714 0.11797199 0.33247748 -0.09539974 0.24899825 -0.018827096 -0.49274203
0.26592907 -0.14082237 0.11892179 0.28525844 0.37241164 0.11741746 0.3057084 -0.011647257
0.3525642 -0.16112137 -0.12520713 -0.2771393 -0.23209098 0.27989274 -0.70215935 -0.4436868
-0.4370986 -0.32088593 0.2645097 -0.2365132 -0.20204464 -0.09103413 -0.27287528 0.3237217
0.33295324 -0.031159448 0.0045475364 0.058862593 0.028737282 -0.32748723 -0.08657642 -0.048887443
0.18460946 -0.4785674 -0.23404793 -0.11625174 0.027593644 -0.28495353 -0.3379753 -0.03991221
-0.19170277 0.49951926 -1.9176763 -0.034986272 0.29591605 0.010163847 0.0016279034 0.35020658
-0.046609323 -0.3408931 -0.19684455 0.0860086 0.08597233 -0.29645637 -0.2554084 0.34128496
0.17507723 0.28148586 -0.06265801 0.10150546 0.24331625 0.2466385 0.5097783 -0.5002604
-0.1405822 0.20661104 -0.10278213 -0.2518662 -0.019676419 -0.14384322 -0.19062796 -0.16474667
-0.04628986 0.09645132 -0.8275427 0.061294183 -0.06364107 -0.19455184 0.03901029 0.13230856
0.22635566 -0.0075636418 -0.33900142 -0.25115082 0.08596955 0.30006677 -0.14862211 -0.049515765

arith.constant1 f4 [32, 64]
00000000: 88a8 f93d f0eb 1a3e f888 acbd ac2f 473e
00000010: 5cba 36be 2cd8 67be e01c 7d3d 780b fc3d
00000020: 8048 28bd f831 ccbd 643c 04be c0b9 9dbc
00000030: 581c 15be 90b6 50bd 305e 723d 04bd 693e
00000040: f896 efbd 80fd 6c3d 8865 ef3d 30ff 55bd
00000050: b86a 75be a0ab b53d a886 d5bd 587f dbbd
00000060: bc8f 783e 90f0 77be 2419 083e 6872 adbd
00000070: 6c04 68be 784d dabd 9849 3cbe 68a8 6d3e
00000080: c808 2c3e d4e3 37be a0f7 383d 9cd1 37be
00000090: 0094 b3bb 10c4 3ebd bc9f 60be 7030 3cbd
000000a0: 70d2 523d 6004 d93c 50eb d13d 6076 ddbd
000000b0: 2010 4bbe d42a 1b3e f882 34be 80a7 393c
000000c0: 10c2 ed3d 00be 1b3c bc98 64be 38fb a9bd
000000d0: dc32 79be d84f 113e dc73 03be b067 05bd
000000e0: 8c6a 4f3e a09a ecbc 34ed 123e 10a0 4e3d
000000f0: c072 973d 2012 443d 5827 adbd 00c4 d93d
00000100: 008a 233c db2c 1fbe 1bbc d6bc e0a4 003e
00000110: f0e6 9bbd b3ee b9bd f0c9 853b d0ce 64be
00000120: e55b 6c3d 0f50 7a3d dea6 db3d a30c d5be
00000130: 4e1e bfbc 753a 7dbd 78c7 a23d 24e7 9ebe
00000140: d925 453d 48b4 383d a829 6ebe df0e ba3d
00000150: 5faa 3c3e 08d0 2abd b44a 2f3e f8a2 833d
00000160: e0bf e5bc 8617 103e bc20 f5bc 2bb0 f23d
00000170: 4096 123e ac47 203e ba2e cb3d 5ec5 65be
00000180: 6a81 893d 40c5 6d3d b4ef 7bbe 700f 4e3e
00000190: 00a0 ca39 04a3 a9bc aeab 03be 9dd1 18bd
000001a0: d956 133e 6f30 793d f5e7 633e bdfd 873d
000001b0: 6538 6b3d 9c57 40be ff1f 1e3e ecb9 f8bd
000001c0: e860 6bbe 54dd 793e c0d5 103e edd7 1bbf
000001d0: dcc2 c0be 5492 113e ca81 ea3d 93ab d1be
000001e0: 94e4 22be d85e 073e 7ce3 973b 83a4 633d
000001f0: 8e9f 5e3e b087 44be 6038 093e b5a2 943c
00000200: 7092 b63d 187a 003e d8ce a23d 70c0 343e
00000210: f882 49be d8fc f23d 1cd7 57be 9083 32bd
00000220: 2412 7cbe 8c78 403e 4054 213c 7c59 6c3e
00000230: 5878 83bd 704d 0d3d 44fe 50be f053 15be
00000240: 50a6 86bd a843 e0bd 102a 73be 3056 4a3d
00000250: 601f 40be e04c fe3d c0ae 50bc 2444 413e
00000260: 4015 cf3c 2888 f0bd e0fc dd3d 94d7 18be
00000270: 7099 47bd 1cce 5cbe 5441 15be 7079 47bd
00000280: 28f5 5dbe 6482 2b3e 6447 6e3e 28a0 bb3d
00000290: 7892 243e 90c5 563d 3086 38bd 5c39 64be
000002a0: c8ca ed3d 08e6 bf3d f083 7fbd 6c88 6a3e
000002b0: 545b 6c3e cc34 7abe c018 6e3d 34c6 3fbe
000002c0: 8039 b5bb 401a 14bd 003d ee3c b491 673e
000002d0: b87c 49be d87f a33d d851 1b3e 7827 15be
000002e0: 102d 7d3d 30cb 7bbe 40d7 84bc c099 77bd
000002f0: 8cb1 0abe 2090 5b3e d8b2 f73d a07f f8bd
00000300: 84f6 26be 7b00 21be ff21 0dbf d9e8 a1be
00000310: 000b 683d 6460 143e 86f1 82be 106c 5c3e
00000320: 8895 a5be 0918 84be 3a45 42bd fffc 1ebf
00000330: c563 d9be ff53 003e 7034 7dbe a629 00bf
00000340: 9c8e dabe cb74 793e 3c29 54be 173b a1bc
00000350: 57d0 0abe 1878 febe 4ccf 18be 3835 fa3d
00000360: 244a 26be e5fc 49bf cad0 babe 90f5 78be
00000370: 6313 36be a320 773e 959b a03d e589 2c3e
00000380: 9c1f 33be a083 bebd 00db ff3d a8df 11be
00000390: 00f6 6dbe 299d 593e 8d52 033d c80e d03c
000003a0: 53bf 193e abdb 4ebd a7eb 84be e529 efbd
000003b0: 9ea1 15be d85f cc3d 2c8b 9e3b 2ba5 52bf
000003c0: c073 743c d430 703e 94ea 753e c820 28bf
000003d0: 403e 66bc 575a 01be b7f0 923e c45b 49bf
000003e0: 4038 23bc 60d5 f4bd f937 eebe 4cbb ae3e
000003f0: 15c7 593e 9877 17be e037 37bd 4efb 9f3e
0.12190348 0.15129066 -0.08424562 0.19451779 -0.17844528 -0.22641057 0.061795115 0.12306875
-0.041084766 -0.09970468 -0.12913662 -0.019253612 -0.14561594 -0.050955355 0.059171855 0.2282601
-0.11698717 0.057858944 0.116892874 -0.05224532 -0.23966491 0.088706255 -0.10426074 -0.10717648
0.2427358 -0.24212861 0.1329084 -0.08469087 -0.22657937 -0.10659307 -0.18387449 0.23208773
0.16800225 -0.17958003 0.04515803 -0.17951053 -0.0054802895 -0.0465737 -0.21935934 -0.04594463
0.05147022 0.026491344 0.102499604 -0.10813594 -0.1983037 0.15153056 -0.17628086 0.011331439
0.1160928 0.009505749 -0.22323889 -0.08299869 -0.24335808 0.14190614 -0.12837166 -0.032569587
0.20255488 -0.028882325 0.14348298 0.050445616 0.07394934 0.047868848 -0.0845477 0.10633087
0.009981632 -0.15544455 -0.026212743 0.12562895 -0.07612407 -0.090787314 0.0040829107 -0.22344518
0.057704825 0.061111506 0.10725187 -0.41611204 -0.02332988 -0.061823327 0.07948202 -0.3103572
0.048131797 0.045093805 -0.23258078 0.09084868 0.18424366 -0.0417023 0.1711834 0.06427568
-0.028045595 0.14071473 -0.029922836 0.118500076 0.14315128 0.1565234 0.09921022 -0.22438571
0.06714137 0.05804944 -0.24603158 0.20123076 0.00038647652 -0.020707615 -0.1285846 -0.037309278
0.14388599 0.060837205 0.22256453 0.066401936 0.05742683 -0.1878342 0.15441893 -0.12144837
-0.22986186 0.24400836 0.14144039 -0.6087635 -0.37648666 0.14215976 0.114505365 -0.40951213
-0.15907508 0.13219774 0.0046352725 0.055576812 0.21740553 -0.19192386 0.13400412 0.018143991
0.089146495 0.12546575 0.079496086 0.17651534 -0.19678867 0.11864632 -0.21078151 -0.0435825
-0.24616295 0.18795985 0.009846747 0.2308101 -0.06419438 0.03449768 -0.20409495 -0.14582801
-0.0657469 -0.109504044 -0.23746514 0.0493986 -0.18761969 0.124170065 -0.012736976 0.1887365
0.025278687 -0.1174472 0.10839248 -0.14925987 -0.048730314 -0.21563 -0.14575702 -0.048699796
-0.21675551 0.16748959 0.23269421 0.09161407 0.16071498 0.052434504 -0.045049846 -0.22287506
0.11610943 0.09370047 -0.062381685 0.22903603 0.23081714 -0.24434203 0.058129072 -0.18727952
-0.005530536 -0.036157846 0.029081821 0.22614175 -0.19676483 0.07983369 0.1516794 -0.14565837
0.061810553 -0.24589229 -0.01621592 -0.06044936 -0.13544291 0.21441698 0.120946586 -0.121337175
-0.16304976 -0.1572284 -0.5513 -0.3162296 0.056651115 0.14489895 -0.25574893 0.21525598
-0.32340646 -0.25799587 -0.0474293 -0.6210479 -0.4245893 0.12532042 -0.24727035 -0.5006355
-0.42686927 0.24360959 -0.20718855 -0.019681497 -0.13556038 -0.49701 -0.14922827 0.12217182
-0.1623922 -0.7890151 -0.36487418 -0.24312425 -0.17780833 0.24133544 0.07842175 0.16849478
-0.17492527 -0.09302449 0.12492943 -0.14245474 -0.23238373 0.21251358 0.03206115 0.025397673
0.1501439 -0.05050246 -0.25961038 -0.116779126 -0.14612433 0.09979218 0.004838368 -0.82283276
0.014920175 0.23456126 0.24015266 -0.6567502 -0.0140529275 -0.12632118 0.28699276 -0.7865565
-0.0099621415 -0.119547606 -0.4652708 0.3412727 0.2126735 -0.14791715 -0.04473102 0.31246418

arith.constant2 f4 [12]
00000000: 35a2 353d 428c 87bd 3697 c3bd 99e1 b8bc
00000010: 2a99 b83b 0a4e 283d 8589 d3bc c1a7 22bd
00000020: 0158 103e 968c 583d 7fa8 173d d798 6abd
0.044344146 -0.06618549 -0.095503256 -0.02256851 0.005633493 0.04109005 -0.02582241 -0.039710764
0.14096071 0.05286845 0.037025925 -0.057274666

arith.constant3 f4 [32]
00000000: 0000 0000 a315 11bd 0000 0000 040c 923d
00000010: 9759 0cbd 0000 0000 42ae c13c 6d1a 76bc
00000020: 5f51 81bc 7bdd 72bc 0000 0000 0000 0000
00000030: dccb 913c f2de 1bbd 968f f6bc 3167 ddbc
00000040: 0000 0000 62e2 eabc 9b5e 0bbd 0d0e 19bc
00000050: bb32 b7bc 4dbd 4b3b 7e4b 113c b869 ae3b
00000060: e74c d9bc 192a a4bd 4745 b5bc d0d3 aabc
00000070: f3a7 c83b 1fff 1fbc 0000 0000 f07b a7bb
0.0 -0.035421025 0.0 0.07131198 -0.034265127 0.0 0.023642663 -0.015020949
-0.015785871 -0.014823313 0.0 0.0 0.017797403 -0.038054414 -0.030097764 -0.027026745
0.0 -0.0286724 -0.03402577 -0.009341729 -0.022363057 0.0031088174 0.008868096 0.0053226613
-0.026525928 -0.08015842 -0.02212776 -0.020852953 0.0061235367 -0.009765415 0.0 -0.00511121

sequential_81_1/dense_243_1/Add/ReadVariableOp f4 [64]
00000000: 0000 0000 b722 933d 0c78 dfbc e94b 00bd
00000010: 0000 0000 cfda 9e3c b61c 3e3d 0000 0000
00000020: 1302 4ebd 45a7 aebb a0bc cbbc 5ec0 aabd
00000030: 9253 803d 2d97 473c 0000 0000 d728 f3bd
00000040: 47d2 57bd 0a32 233d 0000 0000 83b1 a4bd
00000050: 2455 89bd d460 2cbd 0000 0000 0000 0000
00000060: 0000 0000 314c 083d 7f69 be3d 3998 5bbd
00000070: c475 f8bc b09e 80bd 8c5c 83bd 183e ccbc
00000080: 349b 83bc 0000 0000 0000 0000 0000 0000
00000090: 0000 0000 7509 a6bc 116a eebb d63a 3b3c
000000a0: d5bf 08bd be7e 4c3d 4f4e 9fbc e624 9fbd
000000b0: 2cfd 0ebd 0000 0000 d662 43bd b536 42bc
000000c0: 0000 0000 0000 0000 0000 0000 23fb 4abe
000000d0: 5410 97bd c321 65bb 8cc0 39bd bdb4 0ebe
000000e0: e703 633d 0000 0000 2784 913c 7750 a9bc
000000f0: aa85 573c 0000 0000 0000 0000 eab5 3cbc
0.0 0.07184356 -0.027278922 -0.031322394 0.0 0.019391445 0.0464141 0.0
-0.050294947 -0.0053299987 -0.024870217 -0.083374724 0.0626594 0.012182039 0.0 -0.11873024
-0.05269077 0.039842643 0.0 -0.0804167 -0.067056924 -0.04208453 0.0 0.0
0.0 0.033275787 0.092974655 -0.053611968 -0.030329593 -0.06280267 -0.06414136 -0.024931952
-0.016065218 0.0 0.0 0.0 0.0 -0.020268181 -0.0072758277 0.011427602
-0.03338607 0.04992556 -0.01944652 -0.0777071 -0.034909412 0.0 -0.04770168 -0.0118538635
0.0 0.0 0.0 -0.19822364 -0.07376161 -0.003496275 -0.045349643 -0.13936134
0.055423643 0.0 0.01776321 -0.020668251 0.013154427 0.0 0.0 -0.011517981

sequential_81_1/dense_243_1/MatMul f4 [64, 5]
00000000: f8bc 58be e26b 01be 5873 0a3d d45a a9bd
00000010: 0aa5 80be b513 af3e 3b14 cfbd c927 cabd
00000020: 3bbd ccbe e5a4 943e 9f7f 7a3c b1b6 c8bd
00000030: 7238 943e 23b1 3d3e b4ee 8fbe 8b5e a3be
00000040: b013 283e 9991 50be 6a42 67bd b943 f23d
00000050: 1863 7cbe 583d 80be 58ce 1c3e 60cd 1dbc
00000060: 7a85 2dbe 699b cdbf 5037 19be 4aa5 833e
00000070: 5284 7e3d b11f ec3d 62f4 a0bf 70f9 1d3e
00000080: ca7d c83d 7fe6 91be 357a ee3d d8e8 393e
00000090: 9c39 f53d 1823 b3bd e0f9 6d3c 5da2 5bbe
000000a0: 65fc 9bbf 737b 5f3e 2917 b1be 1615 e5bd
000000b0: 94a4 653e 1db1 893e 9330 a5bd 5006 d3bd
000000c0: 200b b03d 3dfd 8a3c 98bb c23e 8d37 f2bc
000000d0: 427f 403e f290 36be 9e13 073e e695 703e
000000e0: c280 63bc 4374 b93e 914c cfbd 79c4 48be
000000f0: 3e97 633f b82f 71be 5f3d 0f3d b627 61be
00000100: 8d53 0b3e fac6 52bd 0fd7 a2be b627 01be
00000110: cef7 8f3e 3e2b fa3c 5a73 b8bd 2d7f 6abe
00000120: 34e8 89bd 3840 833d de39 c8bd ee3a 0cbe
00000130: c39c 8fbd a14f 6e3e e378 3c3d 6009 19be
00000140: 0365 bb3d 2b19 e0bd 5193 bf3e e463 f93d
00000150: 22db 94be 92c1 91be 881f 63be ca97 043e
00000160: 3104 7cbe 3052 603e a8a1 013d 40ee 593c
00000170: f9ac 79be 7b42 6bbe 4b24 58be 4cca 433f
00000180: 066e 093e e8d1 a8bd 29b0 bebd 3480 0d3e
00000190: 359b 54bf be82 d8bd 6a1a 6d3e 9b42 013e
000001a0: 8935 94bd 1a82 e5bd 727d fa3c a030 893e
000001b0: 72d8 69bb e36f 18be f442 6e3e 00da 033e
000001c0: 104d 6fbe f4c2 51bd 1d2c 90be d630 83be
000001d0: 1a2f 68be a0e0 44bc 6f90 96be 099a 5fbe
000001e0: 1457 7dbd 5c50 6fbe 2b60 8ebe 406a 9a3c
000001f0: 9a55 d6bd 2872 86bf 0b20 113c 768a 19be
00000200: 1e23 15be e04b 943d 9a14 ce3e 1bab 83be
00000210: f346 21be b4c9 7bbe 0aca 2e3e 2d90 e2bf
00000220: 83c0 823e ed64 0f3e cdb8 6bbe bba3 b23d
00000230: c4e1 d1bf 1859 d2bd debf 0d3e 6d70 a13d
00000240: c791 6f3d 7553 2c40 d977 1f3e 913e 343d
00000250: a5c9 7e3d dc61 913d 7ac1 3f3f 469d 7c3e
00000260: e4be 013e 18f9 563e da17 303e 7bd2 e7bd
00000270: 6e41 9a3d 6fe9 0bbe 9374 1fbd 78b2 5ebd
00000280: 4aa7 5abf 3075 6cbe ddc3 62be fe3d 9ebc
00000290: 3c38 233e 7451 6d3e 7122 83be 24af 71be
000002a0: fc5b 8a3d a98e 01be 1050 823c fa6b f3bd
000002b0: d491 b93d e557 89be 5ccb 75be f009 41be
000002c0: c20a dbbd 802b 37be 542f 123e c67e 69be
000002d0: bcc9 65bd 7089 903d 808c d43d a8e5 24bd
000002e0: b7e2 2dbe 20b7 71bf b597 03be a98b 1ebe
000002f0: c182 013e fb85 883e fa88 b8bf 2621 9fbe
00000300: 32ef 1f3b c806 323e 6301 823e 42a7 8a3d
00000310: 8555 32be 2654 11be 1115 25be 57fb 8c3e
00000320: 5149 4fbb bae8 31be cc0e 5e3e ef1f d3bd
00000330: 4ac4 f23d 7b3e 9a3f 1b75 99be f61a cf3c
00000340: 1e80 443d e68d 203e d4a3 0abf cfd2 89be
00000350: 12e0 e1bd 5266 8e3e 12cf 033c 151a 0e40
00000360: ff16 88bd 8918 9e3e dd58 aa3e 6305 67be
00000370: 4b71 6abe f771 e93c 833d 27be e8f0 353e
00000380: f222 37be 6581 39be 5009 4c3d 4b8e 72be
00000390: 684c 8cbe f08c 41be 1f83 1bbf 88d6 08be
000003a0: a2dc 853e 51fe acbd 5cf0 b1bd ee5b 9ebf
000003b0: d903 883e 0b1a bf3e d66b c8b9 8a9d 5abe
000003c0: e85c cbbd d05d 7ebe c8b5 153d 8456 7ebe
000003d0: 10b5 74be aab0 233e 1449 673e e008 b4bc
000003e0: 0bff 93be 2ac0 44be 16ea 1b3e 2ee7 31be
000003f0: f205 053e 44aa 543e 4cb4 8fbe 6075 65bf
-0.21165836 -0.1263881 0.033801407 -0.08269277 -0.25125915 0.34194723 -0.101112805 -0.0987087
-0.3998812 0.29032055 0.015289216 -0.098004706 0.28949314 0.18524604 -0.28111804 -0.31908068
0.1641376 -0.20368041 -0.05645982 0.11829323 -0.24647176 -0.25046802 0.15313089 -0.009631485
-0.16945449 -1.6063052 -0.14962506 0.25712043 0.06213791 0.11529482 -1.257458 0.15427184
0.09789617 -0.28496167 0.11644403 0.18155229 0.11973879 -0.08746928 0.014524907 -0.21448655
-1.21864 0.21824436 -0.34587982 -0.111856624 0.22426063 0.2689294 -0.080659054 -0.103039384
0.08595872 0.016966457 0.38033748 -0.029567504 0.18798545 -0.1782873 0.13191077 0.23494682
-0.013885679 0.36221513 -0.10122026 -0.19606198 0.8890265 -0.2355336 0.034970637 -0.21987805
0.13606091 -0.05145929 -0.31804702 -0.12612805 0.28118747 0.030538198 -0.090063766 -0.22900076
-0.06733742 0.06408733 -0.09776662 -0.13694355 -0.07012322 0.23272564 0.046013724 -0.14944983
0.09150126 -0.109423004 0.3741708 0.12177256 -0.29073435 -0.28467995 -0.22179997 0.12948528
-0.24610974 0.21906352 0.031648308 0.013301432 -0.2438239 -0.22974579 -0.21107595 0.76480556
0.13420877 -0.082431614 -0.09310944 0.13818437 -0.8304933 -0.10571812 0.23154607 0.12623064
-0.072367735 -0.112064555 0.030577395 0.2679491 -0.003568199 -0.14886431 0.23267728 0.12876129
-0.23369241 -0.051211312 -0.28158656 -0.25623196 -0.22674218 -0.012016445 -0.2940707 -0.21836103
-0.061850622 -0.23370498 -0.27807745 0.018849492 -0.10465546 -1.0503588 0.008857737 -0.14994225
-0.14564177 0.072410345 0.40250093 -0.2571648 -0.15749721 -0.24588662 0.1706926 -1.7700249
0.255375 0.14003344 -0.23019715 0.08722635 -1.6397023 -0.102708995 0.13842723 0.07882772
0.058488633 2.6925938 0.15573062 0.04400498 0.062204022 0.07098743 0.74904597 0.2466937
0.12670475 0.20993459 0.17196599 -0.11319443 0.07532011 -0.13663267 -0.038929533 -0.05436942
-0.8541151 -0.23091578 -0.22145028 -0.01931667 0.1593942 0.23175603 -0.25612214 -0.23601967
0.06755826 -0.12652077 0.015907317 -0.11885829 0.09061018 -0.2682487 -0.24003357 -0.18851447
-0.10695411 -0.17887688 0.14275867 -0.22802266 -0.056100592 0.07057464 0.10378361 -0.04025808
-0.16981016 -0.9442005 -0.1285084 -0.15482964 0.12647535 0.2666472 -1.4416802 -0.31079978
0.0024404046 0.173854 0.25391683 0.06770183 -0.17415436 -0.14192256 -0.16121317 0.27535507
-0.0031629393 -0.17373934 0.21685332 -0.10308825 0.118538454 1.2050318 -0.29972157 0.02528141
0.047973745 0.1567913 -0.5415623 -0.26918647 -0.11029066 0.2781244 0.008044975 2.220342
-0.06645011 0.30878094 0.33270922 -0.22560649 -0.2289478 0.028496725 -0.16332059 0.1776768
-0.17884424 -0.18115766 0.04981357 -0.23687093 -0.27402043 -0.1890142 -0.6074695 -0.13363087
0.26144892 -0.084469445 -0.08688423 -1.2371805 0.26565436 0.37324557 -0.00038227317 -0.21349159
-0.0992983 -0.24840474 0.036550313 -0.2483769 -0.23897195 0.1598536 0.22586471 -0.021976888
-0.2890552 -0.1921393 0.15226015 -0.17373344 0.12990549 0.20768076 -0.28067243 -0.89632225
